model/item_encoder.onnx (onnx, 615568 bytes, 14 tensors)

encoder.embs.part.weight f4 [5, 32]
-0.28586861 -0.22160196 0.19174188 0.8780033 0.4266504 -0.07629314 1.6272215 -1.1822096
0.8707185 0.74680036 -0.5486378 1.2723436 0.09678653 1.2976375 -1.732474 0.05683661
1.0468457 -0.8959063 -0.46191192 0.91666573 -1.2687733 1.4856247 0.06529716 0.46989492
-0.22677423 1.1325942 -0.3648375 2.4026713 -0.7377301 0.37974244 -0.1904088 -0.2746767
0.63028646 -0.008746829 0.08957573 -1.0951353 -0.30579814 0.41403943 1.2833692 -0.22055177
-0.38359484 -1.5445609 3.4168708 -0.16025883 -0.18853538 1.2485313 0.08072174 0.29393756
1.1705849 0.4932256 1.1900554 -0.99416107 0.82457983 -0.2506523 -0.04025703 0.4516687
-0.3350968 -0.024743255 0.54361415 -0.286232 0.050238967 -0.7659551 0.1441222 -1.2412333
-1.3373573 0.43700552 0.32493764 -0.4303 1.5867463 -1.5621756 -0.3211009 -0.25711432
-0.7527772 1.1009823 1.4795834 0.07762514 -0.2138272 0.22832851 2.6884305 -0.27964738
-1.1315272 0.990287 0.8080279 0.8306401 -0.94863397 -2.924156 0.23936434 -0.6285573
1.0924709 -0.83257097 -1.0371143 -0.6997397 0.12552932 -1.4697795 0.20923729 0.25375357
1.081852 -0.123947114 0.9266545 -0.3724933 1.0721248 1.1917793 -0.0847578 0.63173825
-0.21090274 -1.1204125 -0.1855596 0.5646354 0.2613046 -0.49842936 0.7995648 -0.3731626
-0.57107973 -1.0676715 -0.42173967 0.17793828 -0.63849074 -0.18312104 -0.24256746 -0.888079
0.08963235 -0.8820626 -0.15319246 0.78100294 1.0246521 -1.1324381 0.5193141 -0.683334
-0.99616647 -0.43942806 0.45275772 0.90099055 -1.3603255 0.54985666 0.23632298 -1.1299764
1.5614475 -0.93531305 0.46740633 -0.21545114 2.532183 0.39467806 0.038863923 -1.3610166
-0.73743594 1.0567081 -0.44994348 -0.05858256 -1.1869292 0.62416345 2.0722342 -0.6479308
-0.29830366 -0.04751757 1.0803812 -0.30935913 -0.2672556 0.4994074 1.3493035 -1.3186616
00000000: 5f5d 92be a0eb 62be fc57 443e d3c4 603f
00000010: ec71 da3e 943f 9cbd cb48 d03f a552 97bf
00000020: 68e7 5e3f 4f2e 3f3f 8773 0cbf 28dc a23f
00000030: 0438 c63d fc18 a63f b5c1 ddbf 81cd 683d
00000040: 0aff 853f 1e5a 65bf b87f ecbe 9baa 6a3f
00000050: 2a67 a2bf f328 be3f 84ba 853d 1196 f03e
00000060: 8137 68be d9f8 903f fbcb babe 5ec5 1940
00000070: e1db 3cbf 9a6d c23e 86fa 42be 6da2 8cbe
00000080: 745a 213f dc4e 0fbc 7b73 b73d 652d 8cbf
00000090: 9391 9cbe fafc d33e 7145 a43f 53d8 61be
000000a0: 8b66 c4be 2cb4 c5bf 03ae 5a40 e41a 24be
000000b0: 6b0f 41be e0cf 9f3f 7151 a53d fc7e 963e
000000c0: bad5 953f 1188 fc3e bc53 983f 5781 7ebf
000000d0: aa17 533f 8055 80be 8ee4 24bd 1f41 e73e
000000e0: cf91 abbe 5eb2 cabc 4c2a 0b3f 008d 92be
000000f0: 60c7 4d3d a215 44bf c594 133e bce0 9ebf
00000100: 862e abbf 30bf df3e 3a5e a63e 4850 dcbe
00000110: 811a cb3f 5ff5 c7bf 5667 a4be 7da4 83be
00000120: 02b6 40bf fdec 8c3f fd62 bd3f eef9 9e3d
00000130: 84f5 5abe f3ce 693e 3f0f 2c40 f12d 8fbe
00000140: e2d5 90bf 7383 7d3f ebda 4e3f d4a4 543f
00000150: add9 72bf 5f25 3bc0 ed1b 753e 22e9 20bf
00000160: 16d6 8b3f 5f23 55bf 29c0 84bf 2422 33bf
00000170: c28a 003e bc21 bcbf 4d42 563e fdeb 813e
00000180: 207a 8a3f fcd7 fdbd 3b39 6d3f 71b7 bebe
00000190: 633b 893f 398c 983f 7f95 adbd 99b9 213f
000001a0: e3f6 57be ad69 8fbf 5603 3ebe f28b 103f
000001b0: b7c9 853e 2232 ffbe 47b0 4c3f 2b0f bfbe
000001c0: 4832 12bf 76a9 88bf 43ee d7be 7435 363e
000001d0: 2174 23bf 1584 3bbe 9b63 78be 2559 63bf
000001e0: 2a91 b73d dbce 61bf 7cde 1cbe cfef 473f
000001f0: cd27 833f bbf3 90bf c5f1 043f faee 2ebf
00000200: c404 7fbf b7fc e0be dccf e73e 51a7 663f
00000210: 251f aebf 68c3 0c3f a7fe 713e 11a3 90bf
00000220: 83dd c73f ad70 6fbf e24f ef3e 399f 5cbe
00000230: 490f 2240 3e13 ca3e c72f 1f3d cb35 aebf
00000240: 9ac8 3cbf 3642 873f fe5e e6be 44f4 6fbd
00000250: 4ced 97bf 2dc9 1f3f 7c9f 0440 cbde 25bf
00000260: 42bb 98be c9a1 42bd ee49 8a3f 5264 9ebe
00000270: bad5 88be 54b2 ff3e fab5 ac3f e7c9 a8bf

encoder.embs.카테고리.weight f4 [22, 32]
1.7089981 -0.27190974 -0.40411904 1.3142016 -0.8284807 -0.6438014 0.6579237 2.4917328
0.46180308 2.0547485 -0.8837343 0.27506244 -0.31205648 -0.4759009 0.80226094 1.4110509
0.04421205 -0.43706626 -1.0794431 -0.40973356 0.6040313 -1.1488286 1.2677011 1.7095529
0.056526877 1.1590992 -0.66215837 -0.25828648 -0.95777905 -0.68359196 -0.07520064 1.4134846
1.4170905 0.83577627 -0.36558416 -0.32632798 1.132447 -0.99013036 0.9689861 -0.4558158
-0.29845136 0.37863106 -0.86133957 -0.31358406 -1.0725287 2.4334178 -1.6099883 -1.8618027
-0.68673086 1.7999668 0.61092013 1.2711412 -0.16422679 -0.2570472 -0.7216315 -1.2759302
0.8631739 -1.6435201 0.6306461 -0.34706193 0.51855105 0.021330282 -1.5458406 -1.0258366
-0.58902425 0.68728316 -1.8153183 0.41333812 0.09157672 0.80466896 0.66070604 1.2779605
-0.8784068 -1.5361029 0.83049405 1.677808 0.21000236 -0.41725034 0.25367248 0.80424654
-0.47506353 0.08660923 0.2878206 0.5675131 -3.0740888 -0.60688764 -0.21355543 0.31460184
0.2640385 -1.3010727 2.4370837 -1.9114193 2.0478113 0.11558412 -0.42127734 0.6699442
-0.54879516 -0.7633181 -0.47963122 -1.2770301 0.5923262 -1.3503615 0.2172673 -0.48377734
-1.0108304 -0.501851 1.4504997 0.46582416 1.5008343 0.6016735 1.0494097 -0.85483027
-0.191125 0.29580444 1.5556874 0.657977 -0.9145775 -0.06301444 0.7353947 0.087725565
0.55057955 0.98489636 -1.6018338 -1.01123 0.048906818 0.72268486 -1.2939243 -0.40177906
1.6634315 -1.7587285 -0.021686424 1.2228905 0.11759864 0.5237661 -0.35246658 -0.5772763
-0.38924846 0.9323117 0.33344546 -0.66287166 0.52897125 0.69901615 1.6234115 0.17694119
-0.6852553 0.28469256 -0.22077228 0.7125108 -0.40266794 0.8803623 -0.91507757 2.2286994
0.45994833 1.2144383 -1.4753557 1.902447 1.4450295 -0.37811774 -0.39732665 0.90210885
1.0595008 -0.8141956 -0.42675984 1.8683519 0.014304757 -1.3705841 -0.2605619 -2.383685
0.93004674 0.54339576 -1.8694171 -0.52385145 -1.2859902 0.43753767 0.31694686 -0.2334009
-1.1156371 -1.2752618 2.0201123 0.6529591 -0.048532914 -0.7203243 0.29207513 0.0146715455
2.0031517 -1.7915968 -0.86821604 -1.2794704 -0.6536333 -0.088682786 0.026393792 1.2124008
0.51338726 -2.3700628 1.8829908 1.52894 0.38417998 1.1331536 -1.4128292 -0.39354578
1.1912061 -1.1627716 0.28495806 0.18494603 0.5196442 0.2867759 0.21349427 -1.2593509
0.69635946 0.31443775 1.8097379 0.3769202 -1.4077239 -0.7274037 -0.81723434 0.26711252
-1.5434266 2.446632 -1.1476916 0.4921547 0.8026781 2.2115645 -0.55687517 -1.0214741
-0.10882708 0.55179703 0.14585373 0.09795955 -0.5618276 2.7996974 0.0767962 -2.6922429
-0.34458306 0.12291624 -1.07624 0.64686 1.1393149 -0.7799314 -1.2620838 0.252663
-0.40813336 -1.200667 0.97373044 0.9292289 -0.50899225 -1.1006323 -0.16947378 0.8777553
-0.5685287 -0.65353495 0.25885117 -1.5989561 -0.9856723 -0.08922899 -1.4092662 0.6250977
00000000: 73c0 da3f c137 8bbe b1e8 cebe c237 a83f
00000010: 5017 54bf 2bd0 24bf b06d 283f 8d78 1f40
00000020: 7471 ec3e 0081 0340 693c 62bf fcd4 8c3e
00000030: dec5 9fbe 48a9 f3be f960 4d3f 519d b43f
00000040: b217 353d 26c7 dfbe 312b 8abf 99c8 d1be
00000050: cca1 1a3f d10c 93bf 0844 a23f a1d2 da3f
00000060: ba88 673d 5d5d 943f 3683 29bf 203e 84be
00000070: 0231 75bf e2ff 2ebf cb02 9abd 10ed b43f
00000080: 3963 b53f 6ff5 553f d92d bbbe 7614 a7be
00000090: 06f4 903f 2f79 7dbf 790f 783f b060 e9be
000000a0: 9ece 98be eedb c13e c080 5cbf 178e a0be
000000b0: 9f48 89bf 1ebd 1b40 1914 cebf 8d4f eebf
000000c0: 98cd 2fbf 5065 e63f 4365 1c3f c1b4 a23f
000000d0: 112b 28be b19b 83be d8bc 38bf ae51 a3bf
000000e0: f7f8 5c3f de5e d2bf 0672 213f 1ab2 b1be
000000f0: c3bf 043f d8bc ae3c 1bde c5bf 9d4e 83bf
00000100: 4bca 16bf caf1 2f3f 5a5c e8bf 0ea1 d33e
00000110: 938c bb3d c9fe 4d3f 0824 293f 3694 a33f
00000120: 45df 60bf 059f c4bf 429b 543f 6ac2 d63f
00000130: dc0a 573e d6a1 d5be 5ce1 813e 1ae3 4d3f
00000140: 873b f3be 2e60 b13d 395d 933e 8a48 113f
00000150: dfbd 44c0 fd5c 1bbf 46ae 5abe 7e13 a13e
00000160: 0e30 873e 8d89 a6bf 2ef9 1b40 63a9 f4bf
00000170: 570f 0340 5eb7 ec3d aab1 d7be 7781 2b3f
00000180: d77d 0cbf d168 43bf 3992 f5be b975 a3bf
00000190: b1a2 173f a5d8 acbf 527b 5e3e aab1 f7be
000001a0: e462 81bf 4f79 00bf f9a9 b93f 8180 ee3e
000001b0: 571b c03f 4607 1a3f 0f53 863f 28d6 5abf
000001c0: 46b6 43be ae73 973e c420 c73f 2e71 283f
000001d0: c021 6abf b70d 81bd d442 3c3f 76a9 b33d
000001e0: c8f2 0c3f 2b22 7c3f e408 cdbf fc6f 81bf
000001f0: 8452 483d e001 393f 509f a5bf fcb5 cdbe
00000200: 53eb d43f 041e e1bf baa7 b1bc ad87 9c3f
00000210: 8ed7 f03d 8915 063f 8076 b4be 61c8 13bf
00000220: 934b c7be fbab 6e3f 5db9 aa3e f5b1 29bf
00000230: a96a 073f b9f2 323f f3cb cf3f 1230 353e
00000240: e46c 2fbf 39c3 913e 2112 62be 1c67 363f
00000250: 7e2a cebe 6c5f 613f 8642 6abf 03a3 0e40
00000260: 597e eb3e b772 9b3f 75d8 bcbf 6283 f33f
00000270: baf6 b83f a698 c1be 666e cbbe 9bf0 663f
00000280: b99d 873f 1f6f 50bf 4480 dabe 2826 ef3f
00000290: 805e 6a3c 4d6f afbf 5f68 85be 4c8e 18c0
000002a0: 8b17 6e3f fc1b 0b3f 0f49 efbf 211b 06bf
000002b0: 549b a4bf f004 e03e dc46 a23e a500 6fbe
000002c0: 32cd 8ebf c73b a3bf 8549 0140 5428 273f
000002d0: 73ca 46bd 2c67 38bf df8a 953e ec60 703c
000002e0: a333 0040 0b53 e5bf 6843 5ebf b0c5 a3bf
000002f0: 8354 27bf 529f b5bd cb37 d83c f32f 9b3f
00000300: 596d 033f 1caf 17c0 d805 f13f 4eb4 c33f
00000310: 3db3 c43e 2d0b 913f 96d7 b4bf d57e c9be
00000320: 7179 983f b3d5 94bf 06e6 913e 7e62 3d3e
00000330: 6707 053f 4ad4 923e 3e9e 5a3e 6932 a1bf
00000340: 9d44 323f fcfd a03e 7ea5 e73f affb c03e
00000350: 4c30 b4bf 2137 3abf 4536 51bf f9c2 883e
00000360: 018f c5bf 9e95 1c40 8fe7 92bf b3fb fb3e
00000370: 507c 4d3f 468a 0d40 5f8f 0ebf aabf 82bf
00000380: bbe0 debd 9242 0d3f ae5a 153e 049f c83d
00000390: efd3 0fbf 3e2e 3340 5347 9d3d b54d 2cc0
000003a0: 316d b0be 82bb fb3d 3bc2 89bf 9e98 253f
000003b0: 12d5 913f 96a9 47bf f68b a1bf 0b5d 813e
000003c0: dbf6 d0be 75af 99bf 6646 793f f2e1 6d3f
000003d0: 514d 02bf 85e1 8cbf 898a 2dbe 92b4 603f
000003e0: 198b 11bf 114e 27bf 2488 843e 98aa ccbf
000003f0: 0555 7cbf b0bd b6bd d662 b4bf 6706 203f

encoder.embs.색상.weight f4 [23, 32]
-0.37366492 0.6946805 0.37971795 0.16436271 -1.7779635 0.1336678 -1.3958838 -0.20652938
0.43463174 -1.5678172 -0.41802993 -2.6036923 0.19983073 0.84038067 -0.13003297 -0.6458384
1.2754333 0.08517237 -0.71223664 -0.36609855 -1.7345203 1.7166775 0.7773732 -1.6603577
-0.62079465 -0.17744139 -0.051353514 -2.2000053 -0.96291524 0.7827528 -0.47122604 -1.3886484
0.934531 -0.09361361 1.4344686 -1.7351425 -1.7803286 -0.44422147 -1.302337 -0.426967
0.23434569 -1.0156374 -0.60377383 1.068597 1.2121015 1.2205408 -0.37951344 1.2516378
-0.54593444 -0.32632113 -0.9292518 0.12939788 0.8225556 -1.0785936 -0.5099146 0.31500003
-0.57136095 -0.3852644 1.2743216 0.8375403 1.1878238 0.037755948 0.4740017 -1.0314282
-0.35980836 0.9736411 -0.4129331 -0.78465176 0.5574103 2.138839 -0.17057195 2.9583597
-1.0991994 -0.663589 -0.24968591 1.8870693 0.19787684 -0.3034234 -0.5505522 2.343125
0.66325194 0.42560363 0.3237032 -0.14387044 -0.9527012 0.2414953 1.2882583 -0.41381517
-0.6334382 0.75435036 0.6142182 0.43909317 -0.2353995 -0.08294387 -0.42828178 0.034782402
-0.866518 -0.9194412 0.4326942 3.5355225 1.3133789 -0.61022455 0.35135812 -1.0058384
-0.14477107 1.2544111 -0.3852409 -1.3296477 0.2539749 -0.11405251 -0.83814734 -0.47438782
-0.67466223 -0.6669079 1.529617 1.2887228 0.089701846 1.1180524 -0.03639595 0.74290407
0.055839766 -0.3144701 -1.4350063 -0.29197848 -1.0803882 1.1813035 -0.5858543 0.7920833
-1.2816496 -0.9464072 0.05691522 0.76120013 -2.3872168 -1.8539833 -0.13133462 -0.13600416
-1.7903627 0.24552187 0.60754174 -0.7640621 -0.2562316 0.23234849 0.10173342 -0.79224247
-0.48678663 -0.2513711 -3.0154738 -0.6447296 -1.6690779 -0.8337835 0.59477764 -2.0422738
-0.6054482 0.8601916 0.30593064 -0.55700654 0.23675717 1.1391629 -1.5111494 0.6845074
0.7833961 0.50988185 -0.17124167 -0.92904365 -1.4857225 0.7343212 -0.9650886 -2.0277646
1.4733285 -0.32247686 -0.8829586 0.8475525 -0.108830534 -1.6368749 0.79388064 0.6847282
0.42183152 0.3730864 -0.33291137 -1.3540255 -1.2755791 0.35767996 0.3780542 -0.8293412
-1.9357028 -0.23058999 -0.56379193 -1.1559087 -0.36282387 0.43359646 0.59146607 0.032352634
0.29252514 0.52372944 -1.2262015 -0.46592042 -0.55780834 1.9164472 0.98762006 0.99705386
1.1816746 0.92216843 -2.2279074 -0.9648073 -0.3497943 -0.5273386 0.22116143 -0.2480132
-0.96244216 -1.5966954 2.0522525 1.0614469 0.44404772 -0.50373405 -1.1996937 -1.2634377
-2.0600693 -0.7114715 1.8953252 1.7653512 -0.4691499 -0.45176733 0.35976183 -0.8422955
-0.018303826 1.6400445 0.5402251 0.049297918 0.06455709 0.72046316 0.20039532 2.7874923
-0.5911265 -0.6012717 -0.37365067 0.811776 -2.515087 -0.22413425 0.88302916 0.4718401
0.70017797 -0.26135322 -0.055135347 1.229194 0.535594 2.6648066 0.22476764 0.50984615
-1.0445275 -0.85504395 -0.64847726 0.755523 -1.682859 -0.86616796 -0.22498071 -0.9579852
00000000: 0251 bfbe 95d6 313f 646a c23e b34e 283e
00000010: 4f94 e3bf 36e0 083e 52ac b2bf 707c 53be
00000020: 0d88 de3e 3cae c8bf 0508 d6be e5a2 26c0
00000030: 6da0 4c3e 3023 573f 5d27 05be aa55 25bf
00000040: 6641 a33f da6e ae3d 2455 36bf 4571 bbbe
00000050: c304 debf 17bc db3f ee01 473f 9a86 d4bf
00000060: 66ec 1ebf 32b3 35be 1058 52bd e3cc 0cc0
00000070: 9d81 76bf 7d62 483f 8a44 f1be 3bbf b1bf
00000080: 6c3d 6f3f 7eb8 bfbd ab9c b73f 2619 debf
00000090: cfe1 e3bf ff70 e3be fbb2 a6bf 6b9b dabe
000000a0: 51f8 6f3e 6800 82bf ec90 1abf c9c7 883f
000000b0: 2426 9b3f ae3a 9c3f 964f c2be ab35 a03f
000000c0: 5cc2 0bbf 9013 a7be 72e3 6dbf e180 043e
000000d0: 0193 523f 5b0f 8abf c389 02bf af47 a13e
000000e0: b644 12bf 6041 c5be f81c a33f 0b69 563f
000000f0: 9c0a 983f fba5 1a3d 5ab0 f23e d705 84bf
00000100: cd38 b8be 8b40 793f f86b d3be f0de 48bf
00000110: 71b2 0e3f bde2 0840 6aaa 2ebe c455 3d40
00000120: 91b2 8cbf f8e0 29bf aaad 7fbe 7d8b f13f
00000130: 3aa0 4a3e 505a 9bbe fdf0 0cbf c3f5 1540
00000140: e1ca 293f b8e8 d93e 6dbc a53e c652 13be
00000150: 3ae4 73bf 8b4a 773e a6e5 a43f 95df d3be
00000160: 0229 22bf 1b1d 413f 673d 1d3f d2d0 e03e
00000170: 910c 71be 7ade a9bd c047 dbbe fe77 0e3d
00000180: 20d4 5dbf 8060 6bbf 188a dd3e 0046 6240
00000190: cd1c a83f ad37 1cbf 36e5 b33e 50bf 80bf
000001a0: de3e 14be 8b90 a03f 4c3e c5be e531 aabf
000001b0: 0009 823e 5d94 e9bd d390 56bf f6e2 f2be
000001c0: aab6 2cbf 7aba 2abf 7dca c33f def4 a43f
000001d0: 9ab5 b73d 571c 8f3f eb13 15bd f62e 3e3f
000001e0: 3db8 643d 3a02 a1be 49ae b7bf 347e 95be
000001f0: 294a 8abf f434 973f 8cfa 15bf f9c5 4a3f
00000200: 180d a4bf be47 72bf ef1f 693d 03de 423f
00000210: 29c8 18c0 534f edbf 957c 06be ad44 0bbe
00000220: 9b2a e5bf 166a 7b3e db87 1b3f 9399 43bf
00000230: ca30 83be c3ec 6d3e 9c59 d03d 67d0 4abf
00000240: 193c f9be b6b3 80be 86fd 40c0 000d 25bf
00000250: 58a4 d5bf d672 55bf 5943 183f 9db4 02c0
00000260: a7fe 1abf 8435 5c3f f1a2 9c3e fb97 0ebf
00000270: 7970 723e 17d0 913f 586d c1bf e13b 2f3f
00000280: a68c 483f 9e87 023f fa59 2fbe ced5 6dbf
00000290: 282c bebf 79fc 3b3f 0c10 77bf e5c6 01c0
000002a0: 0796 bc3f b01b a5be 9309 62bf 33f9 583f
000002b0: 8be2 debd 1e85 d1bf c33b 4b3f 594a 2f3f
000002c0: 4dfa d73e 2e05 bf3e 5c73 aabe b550 adbf
000002d0: 2d46 a3bf d421 b73e 5290 c13e b44f 54bf
000002e0: 1cc5 f7bf c81f 6cbe ab54 10bf d1f4 93bf
000002f0: 0dc4 b9be 5b00 de3e 526a 173f 3284 043d
00000300: dbc5 953e 2213 063f 2cf4 9cbf 1f8d eebe
00000310: 87cc 0ebf 244e f53f abd4 7c3f ec3e 7f3f
00000320: 1d41 973f 3b13 6c3f 0996 0ec0 9cfd 76bf
00000330: 3d18 b3be aaff 06bf 2478 623e 2cf7 7dbe
00000340: 9c62 76bf 8460 ccbf 1b58 0340 7edd 873f
00000350: 395a e33e b7f4 00bf 908f 99bf 54b8 a1bf
00000360: 2dd8 03c0 ff22 36bf 049a f23f 07f7 e13f
00000370: 6a34 f0be 0c4e e7be b432 b83e aea0 57bf
00000380: e8f1 95bc faec d13f 314c 0a3f 9dec 493d
00000390: 8236 843d 4670 383f 6e34 4d3e 4666 3240
000003a0: 1154 17bf f1ec 19bf 244f bfbe 8dd0 4f3f
000003b0: 2ff7 20c0 7383 65be 330e 623f 0795 f13e
000003c0: dd3e 333f 17d0 85be 9ad5 61bd 3b56 9d3f
000003d0: b01c 093f 318c 2a40 7d29 663e 4785 023f
000003e0: 14b3 85bf 29e4 5abf 9b02 26bf f569 413f
000003f0: ec67 d7bf 2fbd 5dbf 5861 66be 853e 75bf

encoder.embs.서브색상.weight f4 [23, 32]
-1.5366772 1.2964453 0.58334357 0.21328181 -0.05804385 -0.43769053 -2.25251 0.72159195
0.23250185 -0.32323068 0.6964513 0.1467311 0.6789734 -1.5243574 0.57925075 0.1115471
-1.3644891 0.056535758 0.6389015 -0.7087175 -2.1211004 0.82127196 0.9832535 2.0451217
-0.84063226 0.97571737 -0.5905327 -1.3805776 -0.88731885 -0.9055483 0.08597415 0.02089269
-0.19581921 0.7224773 0.1927033 -1.2309206 -0.6611978 0.03936567 1.6454039 1.4331897
1.1640494 -1.1763995 1.6679686 -2.098895 -0.110675104 0.3755868 0.16529648 2.2593272
-1.1316444 -0.42744845 0.67077005 -0.4812961 0.17945474 -0.73657846 -0.9183514 0.3939514
-1.5602734 -0.66358054 -0.05952432 0.3945045 -0.45825002 0.34057662 -1.295444 1.8698364
-1.7468407 -0.44977683 -0.9482285 -0.7858916 -0.5668928 -1.6495795 -1.8941711 -0.1215714
0.436626 -0.11085109 1.3451331 0.956544 -0.287897 1.7660002 0.44052976 0.34206158
0.85171497 -1.1690931 1.451663 -0.77809805 -0.48901525 0.12698898 -0.7338701 0.60901725
0.42495745 -0.12284405 -0.22258408 0.12659442 -0.00309817 0.3551317 0.35417017 0.27068093
-0.15180254 -1.1101315 -1.4619175 -0.11840124 0.10469805 0.32149765 -0.7676501 -0.67940474
0.69025165 0.82755405 0.5402453 0.07557051 -0.9489136 1.7354714 -0.2641234 -0.092887335
0.93067193 -1.1215458 1.1220679 1.3388436 0.19853738 1.098108 -0.682435 1.0892478
-0.5290978 -0.09977156 -0.11362922 0.3189338 -1.1260562 -0.03943426 1.201498 -0.44544435
-0.2668424 0.49939287 0.91716194 2.5688205 0.5600677 0.083972126 -0.15055054 -0.3284038
0.18551318 -0.29971874 0.10638833 -0.3143654 2.3759582 -0.022535786 0.20398821 1.2676296
-2.4792147 -0.18146579 -0.46648237 0.5273649 -0.63656056 -0.74997395 0.68012977 0.12767269
-0.13403119 -0.15157886 -1.8546892 -0.121236324 0.6279706 -0.3481429 -0.72751963 0.2742266
0.8471741 -1.2541388 0.62108153 -0.3760095 0.21547015 -1.004082 -1.3962723 1.9492613
-1.5345219 -1.625888 0.5945455 -0.38214833 0.20420912 -1.5851848 -0.7351004 2.8297515
1.623083 -0.6200861 1.4891803 -1.5105901 -0.24657534 0.074861735 -0.05290516 0.0320234
0.6249949 0.90228844 -0.54717547 -0.6519746 0.2133668 -0.49077025 -0.96595806 -0.0095175775
0.38817894 0.5090025 1.4780635 0.9456878 -0.99246836 -0.41027084 -0.3551054 -0.48128048
2.330553 -0.84151316 0.47136235 0.48285434 0.5624476 0.57557756 1.0242274 0.22776157
-0.14956102 -0.8069494 0.23707913 0.63589424 0.50296384 -0.5707395 0.1926257 0.63281053
-0.2087745 0.07422971 -0.00707779 0.06273932 0.09511212 0.8797982 -1.0201044 0.08275405
-0.9513286 0.9669312 0.29815298 0.95420444 -0.68679667 -0.31175202 -0.46026722 -0.05252292
0.3300664 0.47676966 1.5683329 1.7863902 0.01682562 -1.7855259 0.38499814 -0.114953265
-0.53591007 -0.89002955 0.60773396 -0.00883726 0.24109669 -1.0235202 -0.7629203 1.1497129
0.44511196 0.60390073 0.025533753 0.7750163 0.03482547 -0.5022503 0.3620749 0.078250185
00000000: d7b1 c4bf ebf1 a53f 0156 153f 8c66 5a3e
00000010: 63bf 6dbd f918 e0be 2029 10c0 40ba 383f
00000020: f714 6e3e 7e7e a5be a24a 323f ad40 163e
00000030: 33d1 2d3f 251e c3bf c749 143f ce72 e43d
00000040: 94a7 aebf 0a92 673d 0c8f 233f 836e 35bf
00000050: 1cc0 07c0 e13e 523f 80b6 7b3f 46e3 0240
00000060: ad33 57bf 9dc8 793f 272d 17bf c4b6 b0bf
00000070: 5427 63bf 03d2 67bf 3713 b03d 2627 ab3c
00000080: d584 48be 46f4 383f 0454 453e ce8e 9dbf
00000090: 4244 29bf e63d 213d 989c d23f c372 b73f
000000a0: 92ff 943f 4294 96bf ff7f d53f 4c54 06c0
000000b0: a1a9 e2bd ea4c c03e 7b43 293e d198 1040
000000c0: b9d9 90bf 86da dabe 96b7 2b3f 716c f6be
000000d0: fcc2 373e 6890 3cbf 1419 6bbf ffb3 c93e
000000e0: 0ab7 c7bf 6ae0 29bf c6cf 73bd 7efc c93e
000000f0: bf9f eabe 0f60 ae3e 1cd1 a5bf cd56 ef3f
00000100: 7a98 dfbf 2649 e6be 1abf 72bf 3130 49bf
00000110: e31f 11bf 6c25 d3bf 3374 f2bf 6dfa f8bd
00000120: 718d df3e e505 e3bd 522d ac3f 11e0 743f
00000130: 3c67 93be 4b0c e23f 1e8d e13e b222 af3e
00000140: fe09 5a3f d8a4 95bf 18d0 b93f 6f31 47bf
00000150: 3560 fabe 6609 023e e9de 3bbf 8ee8 1b3f
00000160: 0694 d93e a995 fbbd 15ed 63be f8a1 013e
00000170: ab0a 4bbb d2d3 b53e cb55 b53e b196 8a3e
00000180: 2072 1bbe ca18 8ebf 1d20 bbbf 597c f2bd
00000190: ee6b d63d 579b a43e b884 44bf 78ed 2dbf
000001a0: 55b4 303f 95da 533f 844d 0a3f b6c4 9a3d
000001b0: 00ec 72bf ed23 de3f 2f3b 87be b73b bebd
000001c0: 8440 6e3f d08e 8fbf ec9f 8f3f 3a5f ab3f
000001d0: 624d 4b3e ce8e 8c3f 0fb4 2ebf 796c 8b3f
000001e0: f472 07bf 0855 ccbd 70b6 e8bd 4b4b a33e
000001f0: 9c22 90bf d285 21bd b0ca 993f 4811 e4be
00000200: 919f 88be 6cb0 ff3e 20cb 6a3f 8e67 2440
00000210: 9960 0f3f 94f9 ab3d ec29 1abe 8b24 a8be
00000220: 2bf7 3d3e bc74 99be 20e2 d93d 80f4 a0be
00000230: b30f 1840 f89c b8bc 49e2 503e b041 a23f
00000240: 74ab 1ec0 2bd2 39be c7d6 eebe 6301 073f
00000250: a2f5 22bf 4bfe 3fbf fc1c 2e3f a1bc 023e
00000260: 793f 09be 7d37 1bbe 7566 edbf c04a f8bd
00000270: aec2 203f c93f b2be ba3e 3abf 6e67 8c3e
00000280: 67e0 583f 9f87 a0bf 33ff 1e3f 5184 c0be
00000290: 35a4 5c3e c285 80bf 0db9 b2bf 6581 f93f
000002a0: 376b c4bf 191d d0bf 2234 183f f2a8 c3be
000002b0: 321c 513e 56e7 cabf 8a2f 3cbf a61a 3540
000002c0: 2fc1 cf3f f6bd 1ebf 769d be3f 045b c1bf
000002d0: 3f7e 7cbe 1c51 993d 15b3 58bd f82a 033d
000002e0: aaff 1f3f 60fc 663f b113 0cbf cfe7 26bf
000002f0: d47c 5a3e 3d46 fbbe 0749 77bf 9def 1bbc
00000300: 64bf c63e fd4d 023f 2f31 bd3f 9818 723f
00000310: 6812 7ebf 050f d2be 60d0 b5be 656a f6be
00000320: c827 1540 686d 57bf 6856 f13e af38 f73e
00000330: 91fc 0f3f 0d59 133f e219 833f 543a 693e
00000340: 8626 19be 3c94 4ebf dfc4 723e f7c9 223f
00000350: 3dc2 003f fc1b 12bf ac3f 453e dfff 213f
00000360: fcc8 55be bf05 983d ceec e7bb 797d 803d
00000370: 25ca c23d 743a 613f c892 82bf f57a a93d
00000380: 458a 73bf ce88 773f 82a7 983e be46 743f
00000390: e8d1 2fbf f69d 9fbe 25a8 ebbe 4622 57bd
000003a0: 77fe a83e 271b f43e 22bf c83f 6fa8 e43f
000003b0: e2d5 893c 1d8c e4bf 7a1e c53e 9e6c ebbd
000003c0: 6731 09bf fad8 63bf 7494 1b3f 28ca 10bc
000003d0: 0de2 763e b602 83bf bf4e 43bf cb29 933f
000003e0: b7e5 e33e 3d99 1a3f 292c d13c 7867 463f
000003f0: 27a5 0e3d 7a93 00bf e261 b93e a241 a03d

encoder.embs.소매기장.weight f4 [7, 32]
2.2958417 -0.76576924 -0.7670112 -0.3613759 -0.08255793 0.7652653 -0.05564283 1.4466374
-0.25659308 1.2519083 0.70900244 0.7268316 -0.88497233 1.0844799 -0.080074646 1.678174
1.353373 -0.566362 0.7439534 0.19725883 0.6897233 -2.5694413 0.83297414 -0.7180547
0.9922034 -0.4549616 -0.14461336 -0.09374619 0.6445608 -0.55257773 1.0305264 1.3592405
-0.6144078 -0.42592388 0.5699591 -0.7929701 1.2462221 2.5244613 -0.4981536 -0.4172871
-0.31738752 -0.5069062 -1.2742171 1.2730561 0.059178963 0.04028314 -1.4689692 1.0487984
-1.5258039 0.38598043 -0.77873296 0.16494794 0.54032356 0.85281986 0.37342116 -0.45707658
0.55127996 1.2408324 -0.33284977 0.083379894 -2.380454 1.5356178 1.5541252 -1.2426203
0.2020194 1.2902688 0.13490681 -0.01916853 0.7992731 0.7533757 0.38386166 -0.5046561
-0.09215763 -1.0336521 -0.3333598 0.25695893 -1.6661172 -1.5130261 0.119399264 0.03464099
-0.4236488 -0.28114995 1.7725652 1.1185386 2.002781 -1.5799279 0.6865926 -0.0016827986
1.759363 0.451851 -0.13849403 0.54212445 -0.4830244 -0.29710534 2.0549693 1.5495915
1.3846353 -1.5788653 -1.1220137 -0.9815602 1.2874105 -0.3259217 0.67796814 1.4523308
-0.38813666 -0.5579655 -0.23052323 -0.11912259 0.3391634 -0.8751287 -1.0683109 -0.22960104
0.3384369 -0.16276522 2.2637224 1.0663123 0.8242019 -0.8781427 1.8236712 -0.07895182
0.40052193 0.5899738 0.53485066 0.57770675 0.64424527 -0.07922317 -1.2735599 -0.34853315
-1.0767388 1.3309518 -0.36282432 0.62736547 -1.0599738 -1.3017478 -0.95162106 -0.5065183
-0.24573238 -1.2112381 1.2955834 0.30546474 -0.46140152 0.3529952 -2.143934 -0.0264675
-0.99527663 -0.09219821 0.17805581 0.7375654 -1.1937289 0.15345454 0.4537383 1.3890843
-0.035137158 1.065967 0.47408584 0.803304 0.66122717 -1.5510663 -0.3045476 -0.47185063
0.6045465 0.12886533 1.0706717 1.2557429 -0.42225897 0.629227 1.9254822 -2.0086522
0.2003704 -0.40772837 0.6032762 0.7025908 -0.45203245 -1.0664729 -0.38796714 -0.5183566
1.8242596 -2.2869785 0.5706553 0.27221936 -0.95430976 0.80615336 0.16118738 -0.5654583
-0.41970396 0.042647757 0.16373919 -1.0528355 -0.28984603 0.7231059 0.69874996 -2.772043
1.0298297 -0.34025487 0.8917622 2.146259 -0.6785541 0.109934546 -0.1157207 0.58806163
-0.9454174 -0.22325382 -0.12799184 0.5661317 0.6273978 1.0243173 0.65369296 0.604547
2.002207 -1.0197073 0.11419259 -0.26045498 0.8007716 0.11666572 0.6754332 1.114442
-0.71200144 1.0056944 -1.4170341 0.40968764 -0.40158427 1.1485474 -2.7172632 1.0055813
00000000: 12ef 1240 7409 44bf d95a 44bf 4306 b9be
00000010: 2214 a9bd 6de8 433f bce9 63bd 6a2b b93f
00000020: 2b60 83be 883e a03f 2f81 353f a311 3a3f
00000030: 8c8d 62bf 3dd0 8a3f 2dfe a3bd 68ce d63f
00000040: 543b ad3f 1afd 10bf bb73 3e3f 38fe 493e
00000050: b591 303f ba71 24c0 cb3d 553f 6fd2 37bf
00000060: 0b01 7e3f baf0 e8be 8615 14be 01fe bfbd
00000070: f001 253f bc75 0dbf 4ae8 833f 98fb ad3f
00000080: d449 1dbf b212 dabe d7e8 113f 1700 4bbf
00000090: 3584 9f3f c690 2140 fd0d ffbe a8a6 d5be
000000a0: 9e80 a2be 9bc4 01bf 8c19 a3bf 81f3 a23f
000000b0: a465 723d efff 243d 2f07 bcbf 073f 863f
000000c0: 8b4d c3bf 3a9f c53e 0b5b 47bf 1de8 283e
000000d0: a552 0a3f 6752 5a3f 0f31 bf3e f105 eabe
000000e0: af20 0d3f 99d3 9e3f 496b aabe 14c3 aa3d
000000f0: 5c59 18c0 208f c43f 93ed c63f 2f0e 9fbf
00000100: 2cde 4e3e 8727 a53f 0325 0a3e 5207 9dbc
00000110: 299d 4c3f 3bdd 403f 8489 c43e 2431 01bf
00000120: 24bd bcbd b64e 84bf 23ae aabe 1f90 833e
00000130: 5443 d5bf d7aa c1bf 9a87 f43d b6e3 0d3d
00000140: 7fe8 d8be e3f2 8fbe 6be3 e23f 462c 8f3f
00000150: 902d 0040 143b cabf 88c4 2f3f 5a91 dcba
00000160: cf32 e13f 0459 e73e 61d1 0dbe abc8 0a3f
00000170: f94e f7be 311e 98be 9e84 0340 0459 c63f
00000180: bb3b b13f 4218 cabf 259e 8fbf 8747 7bbf
00000190: dec9 a43f 36df a6be 528f 2d3f fae5 b93f
000001a0: d9b9 c6be d4d6 0ebf 480e 6cbe 8bf6 f3bd
000001b0: d3a6 ad3e 6f08 60bf 69be 88bf 891c 6bbe
000001c0: 9a47 ad3e edab 26be d4e0 1040 ec7c 883f
000001d0: e5fe 523f f6cd 60bf 0f6e e93f 7eb1 a1bd
000001e0: 3611 cd3e 8608 173f f9eb 083f 97e4 133f
000001f0: 42ed 243f c23f a2bd 0304 a3bf f072 b2be
00000200: 94d2 89bf a15c aa3f 1cc4 b9be 069b 203f
00000210: 39ad 87bf ac9f a6bf 709d 73bf 2fab 01bf
00000220: 45a1 7bbe da09 9bbf add5 a53f e065 9c3e
00000230: d23c ecbe c9bb b43e 3736 09c0 5fd2 d8bc
00000240: 73ca 7ebf 6ad2 bcbd 4354 363e 16d1 3c3f
00000250: 1ccc 98bf 3023 1d3e 6350 e83e 84cd b13f
00000260: fbeb 0fbd 9b71 883f 61bb f23e 55a5 4d3f
00000270: 2f46 293f 5789 c6bf aaed 9bbe 6896 f1be
00000280: 8fc3 1a3f 46f5 033e c50b 893f 2fbc a03f
00000290: 5432 d8be 0515 213f 3376 f63f c28d 00c0
000002a0: e62d 4d3e c6c1 d0be 4f70 1a3f fedc 333f
000002b0: cc70 e7be 2f82 88bf a1a3 c6be 05b3 04bf
000002c0: 5781 e93f db5d 12c0 7716 123f 5660 8b3e
000002d0: a54d 74bf 1160 4e3f 4e0e 253e e0c1 10bf
000002e0: 70e3 d6be 6aaf 2e3d 3fab 273e 50c3 86bf
000002f0: b366 94be 781d 393f 47e1 323f 2769 31c0
00000300: 76d1 833f e335 aebe 874a 643f 4f5c 0940
00000310: b9b5 2dbf 5d25 e13d f9fe ecbd 358b 163f
00000320: e006 72bf a69c 64be 4b10 03be 02ee 103f
00000330: 249d 203f d41c 833f 6c58 273f 98c3 1a3f
00000340: 2924 0040 c585 82bf cedd e93d 5b5a 85be
00000350: 5eff 4c3f 70ee ee3d 31e9 2c3f 09a6 8e3f
00000360: ba45 36bf 98ba 803f 6061 b5bf 94c2 d13e
00000370: 749c cdbe 9a03 933f a4e7 2dc0 e3b6 803f

encoder.embs.기장.weight f4 [12, 32]
0.2808169 1.6178169 -0.14023775 -0.6209854 0.47311848 0.815624 -2.3987572 0.07490173
0.22858544 0.05179606 -0.72546697 1.9660696 0.60353327 -0.33426464 0.36672708 1.8139275
-0.04836984 -0.50588644 -1.0400649 -0.629574 -1.113896 0.74957025 -0.8892431 -0.32347754
-1.5901121 0.8339164 0.4808711 -0.115735345 0.462113 -0.03795719 -0.85886806 0.29663995
0.27191827 -0.062173054 -0.3255921 1.2209939 0.3521021 -0.7836703 -0.3516392 0.20480905
0.595076 -0.07485879 -0.5641464 -0.3259957 -0.73282367 -0.84258205 0.4946285 0.5035327
1.1888468 0.73121506 0.2976225 1.5388167 1.7563655 0.25868672 0.1700738 -0.10829012
1.0652924 -0.24220014 0.9741281 0.9976284 0.5631728 -1.7957242 -0.590325 -0.78143066
-0.64241517 -0.47437263 1.1477965 -1.0636604 0.26677895 -1.0017877 -1.324612 1.302938
0.9332295 0.48251447 0.5335297 -1.4067338 0.95472467 -0.0801283 -0.14139031 0.9831768
0.40272284 -0.28363666 1.3756442 -1.9502765 -0.5399426 1.4684474 1.3637518 -0.9142074
0.6979647 -1.5658419 0.77198684 0.62447935 -0.23831329 0.18584068 -2.204106 1.1134546
-0.727453 1.3158284 -0.55913055 0.20044307 1.7433475 0.4833472 -1.5652983 1.3501171
0.68563974 -1.2294426 -0.8907972 -0.58667266 -0.9867429 -0.23909736 0.48547027 -1.3100562
0.13898155 -0.7762159 -0.8611283 -0.6092243 -1.112531 0.032111637 0.38606694 -0.36148265
1.1922972 0.22364433 0.07772299 0.1878213 1.2807842 1.1479591 -0.9068471 0.36425894
0.468234 0.23233564 -0.3127965 2.5458329 0.12070155 -0.313691 -0.7759782 0.81478155
-1.0839481 -1.4876434 -2.341307 -2.087568 0.032259673 0.95828724 -1.7484261 1.9546314
1.6857253 0.08620219 -1.2773894 -1.2673972 -0.46313366 1.0394332 -0.009753155 -1.251646
-2.0547214 0.58017725 0.015895661 -2.1430776 1.3092526 -0.011487642 -1.6039108 1.4120946
1.4784036 -0.7552643 -0.721763 0.4797477 0.536517 0.44244313 1.1918523 -0.3190737
-0.53917223 2.3325684 0.5564482 2.311975 -2.7447016 0.2872684 -0.67883795 0.5888259
-0.129361 1.3769615 0.2637678 -1.4808816 -1.3607502 -0.9929466 -1.5847813 0.7126467
0.88065606 0.11767514 0.76223147 1.4106774 0.19876477 -0.54436195 -1.8099709 0.58885825
0.5121874 -0.07703967 1.3133818 -0.3377359 0.036221147 -0.6800723 0.33630386 1.5731514
-1.5347327 0.8437164 -0.045447066 -1.2228276 0.044065915 -0.22481413 0.47850168 -0.82789
-1.223875 0.67566 0.4911932 -0.2969818 -0.6809234 1.0060136 0.6881216 0.7047209
0.15199429 0.81057495 -0.16220985 0.44270226 -0.3094632 0.100118294 1.4635015 0.68934697
-0.579102 -0.5798863 1.4911706 2.436648 -0.6115307 2.1823673 -1.0701462 -0.6243113
-1.0939935 -1.4128445 0.70512724 -0.26899433 0.044594057 -1.1984634 -0.5577316 0.3028148
-0.936823 0.35242698 -0.76439035 0.25746888 0.54748696 -0.025845977 -0.45130184 1.3060277
-1.5526545 -1.092497 -0.84164184 -0.55574715 0.3206942 -0.2526915 0.7104148 -0.9606661
00000000: 3cc7 8f3e a014 cf3f 7c9a 0fbe e6f8 1ebf
00000010: 963c f23e bccc 503f 3d85 19c0 1466 993d
00000020: 4d12 6a3e 1b28 543d 34b8 39bf 2ba8 fb3f
00000030: 2881 1a3f bc24 abbe a7c3 bb3e c72e e83f
00000040: 741f 46bd c681 01bf d920 85bf c32b 21bf
00000050: 2594 8ebf d6e3 3f3f 70a5 63bf d99e a5be
00000060: cb88 cbbf 8c7b 553f bd34 f63e a706 edbd
00000070: 139a ec3e 0079 1bbd c7de 5bbf 31e1 973e
00000080: df38 8b3e 2ca9 7ebd 02b4 a6be 8749 9c3f
00000090: ba46 b43e 9e9e 48bf 0e0a b4be 77b9 513e
000000a0: e756 183f 914f 99bd e66b 10bf e9e8 a6be
000000b0: 559a 3bbf 75b3 57bf f23f fd3e 85e7 003f
000000c0: 222c 983f e930 3b3f fa61 983e f2f7 c43f
000000d0: 96d0 e03f 9672 843e d427 2e3e 36c7 ddbd
000000e0: 805b 883f 5003 78be 7660 793f 9364 7f3f
000000f0: 182c 103f 4ada e5bf 8a1f 17bf d70b 48bf
00000100: 5275 24bf f8e0 f2be ffea 923f 0626 88bf
00000110: 4097 883e 943a 80bf e38c a9bf acc6 a63f
00000120: 21e8 6e3f 230c f73e 6795 083f da0f b4bf
00000130: d668 743f 4e1a a4bd 9fc8 10be 7ab1 7b3f
00000140: b031 ce3e d338 91be 1c15 b03f a9a2 f9bf
00000150: ae39 0abf 16f6 bb3f 6b8f ae3f 7f09 6abf
00000160: d1ad 323f 826d c8bf eea0 453f e1dd 1f3f
00000170: 6608 74be 054d 3e3e 1310 0dc0 ae85 8e3f
00000180: 5c3a 3abf 116d a83f 2e23 0fbf f340 4d3e
00000190: 0326 df3f 4979 f73e b25b c8bf a3d0 ac3f
000001a0: 1686 2f3f 605e 9dbf 490b 64bf 2e30 16bf
000001b0: 2f9b 7cbf f0d5 74be 8f8f f83e ecaf a7bf
000001c0: 2e51 0e3e 16b6 46bf e772 5cbf 20f6 1bbf
000001d0: 6a67 8ebf 7e87 033d 91aa c53e 4114 b9be
000001e0: 329d 983f 0503 653e 3b2d 9f3d 3a54 403e
000001f0: bdf0 a33f 53f0 923f 2227 68bf 2680 ba3e
00000200: 5ebc ef3e 65e9 6d3e dd26 a0be edee 2240
00000210: 6032 f73d 1b9c a0be 82a6 46bf 8695 503f
00000220: d0be 8abf 196b bebf f9d7 15c0 b79a 05c0
00000230: b822 043d 5052 753f 6dcc dfbf 5d31 fa3f
00000240: d9c5 d73f c68a b03d 7f81 a3bf 123a a2bf
00000250: db1f edbe 260c 853f b2cb 1fbc f035 a0bf
00000260: 8e80 03c0 7f86 143f 9e37 823c 2f28 09c0
00000270: 9795 a73f aa36 3cbc f34c cdbf 84bf b43f
00000280: 543c bd3f 0059 41bf 76c5 38bf 7ea1 f53e
00000290: 2e59 093f e887 e23e 9e8e 983f a15d a3be
000002a0: 3107 0abf cd48 1540 6473 0e3f 66f7 1340
000002b0: 31a9 2fc0 d814 933e 53c8 2dbf 4bbd 163f
000002c0: 3677 04be 4640 b03f 930c 873e 878d bdbf
000002d0: 102d aebf c031 7ebf 1dda cabf 0470 363f
000002e0: ad72 613f aaff f03d 9a21 433f 1491 b43f
000002f0: fe88 4b3e 4e5b 0bbf 20ad e7bf 6abf 163f
00000300: b71e 033f f9c6 9dbd e51c a83f b8eb acbe
00000310: a05c 143d 3819 2ebf 0530 ac3e 065d c93f
00000320: 1f72 c4bf ccfd 573f b426 3abd 9d85 9cbf
00000330: 767e 343d ad35 66be 2cfe f43e 99f0 53bf
00000340: f0a7 9cbf 0ef8 2c3f ad7d fb3e 000e 98be
00000350: ff50 2ebf 0ec5 803f bd28 303f 9768 343f
00000360: 64a4 1b3e d781 4f3f 571a 26be dfa9 e23e
00000370: f671 9ebe d20a cd3d 0454 bb3f 0b79 303f
00000380: 0740 14bf 6e73 14bf aede be3f 0af2 1b40
00000390: 478d 1cbf e8ab 0b40 8dfa 88bf ded2 1fbf
000003a0: fb07 8cbf 17d8 b4bf 3883 343f a0b9 89be
000003b0: 42a8 363d 4067 99bf 80c7 0ebf 8b0a 9b3e
000003c0: a2d3 6fbf 4f71 b43e 16af 43bf f6d2 833e
000003d0: 1b28 0c3f f1ba d3bc 0911 e7be ea2b a73f
000003e0: 62bd c6bf f1d6 8bbf d775 57bf 7245 0ebf
000003f0: 0832 a43e c860 81be bfdd 353f 37ee 75bf

encoder.embs.핏.weight f4 [9, 32]
1.1221777 0.39398894 0.59049094 -0.4258014 -0.50741905 0.13146016 0.66295433 0.6508907
0.5312354 -2.5368187 1.1682227 1.2334478 0.29565045 0.8653617 0.52704996 0.5711233
-1.0564308 1.8697593 -1.7079798 -1.4972577 -0.5369415 0.8814821 -0.233684 0.42380682
1.0674498 -0.49857298 -1.807216 -1.6424618 0.14164741 1.3870333 0.0935372 1.1292517
0.33849797 1.0188817 0.9021936 -0.16654412 0.9455461 0.51510346 0.379034 -2.0881088
-0.41315138 -0.2773384 -0.2365328 1.0997837 0.80901575 1.4086186 -1.0017942 -0.5451262
1.5879617 -0.65806824 -2.149531 0.842122 -0.07812296 1.2885252 0.13606787 0.699321
0.30581763 0.2021461 -0.66602224 0.2030829 0.8587138 -2.3926003 -0.5666039 1.0303373
0.52690184 0.8126362 -0.3286755 -0.5352024 0.35350454 0.20930798 1.474652 -0.14968613
-0.50489473 0.874958 -0.039956175 0.7243 0.47665468 0.46578246 0.42094174 -1.9661474
0.5047622 -0.94400513 0.27329183 -1.3682308 -0.71190476 0.17703539 -0.37438592 0.8539534
0.33748877 -0.19839248 -0.3630946 -0.2814274 -0.16410436 -1.0856842 -0.60378724 -1.9344627
-1.3636796 -1.6366047 0.35211918 0.6857405 1.2372427 1.4361519 0.6255885 -0.16292632
-2.7579286 1.5874407 0.95215106 -1.1743106 -0.26224563 1.0436246 0.6980626 2.086485
0.055087734 0.5340806 0.23457083 -0.6211226 -0.38796142 -1.4575367 -1.1236995 -0.907737
-0.15388693 -0.98611075 -0.18363357 0.18880878 -1.2020191 0.88804305 -1.1009533 -1.2772849
-0.0842641 -0.080017425 -1.2743047 -2.6793609 0.695514 0.415077 1.5998838 0.4975725
-0.35454127 -1.1133839 -0.5029481 0.3894352 -0.61469895 -0.80841666 0.075361945 1.1081585
1.9586887 -0.98088133 -1.7513353 0.73022133 0.4079327 0.13042195 -1.0109658 -0.7137724
-0.093555115 -1.2324861 -0.4893121 -1.6042644 -0.099450134 1.9642581 -1.70685 -0.031273864
0.28669837 -0.3029017 0.12780914 0.71235 0.95566964 -1.185653 -2.3670175 -0.110069014
-1.096573 0.25186715 1.446101 1.5555989 -0.58126146 0.2958331 0.23087436 0.14151317
-0.28345737 -1.1527292 0.34674188 1.8958396 -0.1657832 -0.72885597 -0.9368913 -0.48025304
-0.011413099 1.2234354 -0.70258653 -0.8610649 -0.7027952 -0.11941385 -1.1071292 -1.3959923
1.4366561 0.47552547 -0.5901228 0.8231126 0.09842037 2.13183 1.2971241 -0.17571726
1.0582123 -0.98909396 1.3870947 -1.0974461 0.4294147 0.9405379 -1.0382384 0.30938157
-2.04422 0.09319857 1.6136084 -1.8156078 0.90946 0.84220266 1.2726034 -0.66855836
2.021531 1.2999327 -0.07130011 -0.08445432 -0.09643702 -0.5268996 -0.6302405 -0.40207103
1.529559 -0.11247814 0.31852528 -2.1762784 0.13865909 -0.18654548 0.2018874 0.51519144
-1.4264987 0.93748367 -0.9408195 -1.9373727 0.8412463 0.9990013 -0.4172504 -0.5676507
0.30926114 0.80500555 -1.5629199 -0.16065668 0.33354726 -0.31012866 0.4506243 -0.25604168
-1.9847739 0.08564208 -0.31722987 1.316368 -1.3326561 -1.0300293 -0.009491719 -0.22519538
00000000: 85a3 8f3f ebb8 c93e 6a2a 173f a402 dabe
00000010: 37e6 01bf 7e9d 063e 60b7 293f c6a0 263f
00000020: 0bff 073f 3d5b 22c0 5288 953f 9ee1 9d3f
00000030: 7f5f 973e 5888 5d3f bfec 063f 2335 123f
00000040: 2039 87bf 4654 ef3f 159f dabf 24a6 bfbf
00000050: 0075 09bf d0a8 613f dc4a 6fbe 35fd d83e
00000060: 32a2 883f f544 ffbe db52 e7bf 303c d2bf
00000070: 050c 113e 4f8a b13f 6e90 bf3d 528b 903f
00000080: 9b4f ad3e b76a 823f 29f6 663f 8b8a 2abe
00000090: 4f0f 723f d2dd 033f bf10 c23e 93a3 05c0
000000a0: 9488 d3be 4cff 8dbe a835 72be b6c5 8c3f
000000b0: a81b 4f3f 9d4d b43f cb3a 80bf 648d 0bbf
000000c0: 5442 cb3f 2977 28bf ea91 09c0 4f95 573f
000000d0: eefe 9fbd 65ee a43f 6055 0b3e b306 333f
000000e0: 2194 9c3e 63ff 4e3e 6f80 2abf f7f4 4f3e
000000f0: abd4 5b3f 5d20 19c0 f40c 11bf 18e2 833f
00000100: 0ae3 063f ed08 503f 2848 a8be 0603 09bf
00000110: 8cfe b43e d554 563e 66c1 bc3f 5247 19be
00000120: c840 01bf 3ffd 5f3f 16a9 23bd ba6b 393f
00000130: 150c f43e 0a7b ee3e ad85 d73e b8aa fbbf
00000140: 1838 013f 52aa 71bf e8ec 8b3e 3022 afbf
00000150: 643f 36bf c448 353e 83af bfbe b19c 5a3f
00000160: 54cb ac3e 6627 4bbe 89e7 b9be 4117 90be
00000170: f90a 28be b3f7 8abf cd91 1abf 799c f7bf
00000180: 0e8d aebf 437c d1bf f748 b43e b08c 2f3f
00000190: f85d 9e3f d3d3 b73f 9126 203f 28d6 26be
000001a0: e781 30c0 4231 cb3f 2cc0 733f cf4f 96bf
000001b0: 0f45 86be 7e95 853f 3bb4 323f f888 0540
000001c0: ada3 613d 82b9 083f 5633 703e e401 1fbf
000001d0: e1a2 c6be 9090 babf 63d5 8fbf 7461 68bf
000001e0: 8994 1dbe c171 7cbf 700a 3cbe 1757 413e
000001f0: c3db 99bf ca56 633f 0aec 8cbf 127e a3bf
00000200: a892 acbd 2de0 a3bd 6b1c a3bf a67a 2bc0
00000210: 350d 323f f984 d43e fec8 cc3f d3c1 fe3e
00000220: 6f86 b5be 5d83 8ebf 35c1 00bf 0d64 c73e
00000230: e95c 1dbf 65f4 4ebf 5d57 9a3d 23d8 8d3f
00000240: 50b6 fa3f 0a1b 7bbf c12b e0bf c9ef 3a3f
00000250: 8edc d03e 558d 053e 5467 81bf cab9 36bf
00000260: d399 bfbd 1bc2 9dbf 1e87 fabe 8958 cdbf
00000270: 83ac cbbd cf6c fb3f 107a dabf 0619 00bd
00000280: 21ca 923e ee15 9bbe 66e0 023e 925c 363f
00000290: c4a6 743f 7ac3 97bf 377d 17c0 dd6b e1bd
000002a0: 815c 8cbf bbf4 803e d619 b93f dd1d c73f
000002b0: 8dcd 14bf 7077 973e 546a 6c3e d4e8 103e
000002c0: 5321 91be a18c 93bf 2788 b13e dfaa f23f
000002d0: 12c3 29be 4e96 3abf 1cd8 6fbf bae3 f5be
000002e0: 02fe 3abc 8899 9c3f b6dc 33bf c06e 5cbf
000002f0: 63ea 33bf 408f f4bd 69b6 8dbf e0af b2bf
00000300: 59e4 b73f 1378 f33e 4a12 17bf 82b7 523f
00000310: 9e90 c93d e76f 0840 2a08 a63f 3aef 33be
00000320: 8073 873f 4335 7dbf 528c b13f 1d79 8cbf
00000330: 3edc db3e 18c7 703f ffe4 84bf 4367 9e3e
00000340: 80d4 02c0 e4de be3d b88a ce3f d665 e8bf
00000350: 5fd2 683f 989a 573f abe4 a23f a426 2bbf
00000360: c460 0140 3264 a63f cb05 92bd 63f6 acbd
00000370: c680 c5bd e4e2 06bf 7157 21bf 41dc cdbe
00000380: 97c8 c33f f05a e6bd bf15 a33e 2548 0bc0
00000390: a6fc 0d3e c705 3fbe 92bb 4e3e 96e3 033f
000003a0: 8297 b6bf eefe 6f3f 8cd9 70bf d4fb f7bf
000003b0: eb5b 573f 8dbe 7f3f d8a1 d5be 8e51 11bf
000003c0: 7a57 9e3e d814 4e3f c20d c8bf 2f83 24be
000003d0: b5c6 aa3e 2fc9 9ebe 3ab8 e63e e517 83be
000003e0: 120d febf 1d65 af3d f46b a2be bf7e a83f
000003f0: 7a94 aabf 00d8 83bf 2883 1bbc 9e99 66be

encoder.embs.옷깃.weight f4 [11, 32]
-0.80602396 1.3080959 -0.4463509 -0.18753044 -0.61284417 0.31473017 -1.8774958 1.0007237
0.6611076 -1.8099176 0.069603905 1.4971657 0.25980923 -0.22953214 -0.454787 -2.0572588
0.7552465 0.2467387 0.25419593 -0.17188366 0.99414414 -0.91462433 -0.07772639 -1.0770991
-0.039820433 0.7090282 0.45945853 -1.0043256 1.6952825 -0.87102485 0.24897942 -1.8317375
0.3341656 0.2926762 0.10373743 1.0212766 -0.5298099 -1.8597537 0.09667404 -0.99993
-0.20802948 0.082931906 0.8727104 1.0260787 0.8093795 -0.1827702 -0.15091237 0.31400862
-1.7635124 0.89078516 0.8278316 0.32868597 -1.9565616 -0.5528766 0.9999246 0.42374662
1.2267083 0.48809806 -1.2713234 0.009595949 1.0172787 1.4755615 0.9074776 0.13167597
-0.3885321 1.4546226 1.6114973 -0.21745747 0.10202765 0.0035064511 -0.34808686 0.7049744
1.3532975 0.46866423 -1.8403431 -0.24639548 0.67641973 0.39360723 -0.23459563 0.03515222
-0.63670987 -1.9302626 -0.006799303 -0.44936767 -1.3854403 0.77159643 -0.02551948 1.4969596
1.0913677 -0.13736711 1.3962635 1.3950181 -1.8017614 -1.9400343 -1.1809884 0.6488529
0.18566929 -0.3174112 -0.55472386 -0.010033409 0.24924383 -0.70239675 0.079531215 0.49648046
0.09460975 -1.6108426 -0.12751274 0.7466436 0.46768683 1.9205658 -1.794227 0.96563244
-0.64228565 -0.8270566 0.53197086 -1.0865979 0.7249574 1.1490239 0.46280006 1.4738756
-2.5343113 -1.6492519 -0.16833723 1.6278923 -0.6412684 0.12916975 -0.027729483 -0.16285363
1.3167571 -0.8023685 -1.7474196 -0.546293 -0.34729105 0.97493356 2.1000054 1.3676311
-0.079274766 -0.42138574 0.3808423 0.50963414 1.2960619 -0.7925083 0.16104446 -1.9623678
-0.8969807 -0.4481697 -0.8139709 -2.5182142 0.12723923 -1.3528373 1.3569871 0.04088103
0.7744616 -1.7512845 0.5146827 -0.003633089 1.1904849 0.6937055 -1.3025546 0.6038101
0.64800113 -2.0755374 1.0061777 -0.7513581 -0.6491746 -2.166544 -0.38085556 0.7359036
0.30360836 -1.2221327 -0.37748614 -2.0842059 1.1827174 -0.55116475 0.13900755 0.6914757
-0.565684 -1.2359838 -1.5045707 -0.760544 0.27250427 -0.38443515 1.227219 -1.1120546
-0.28172013 0.067884624 0.35709858 0.9587335 1.2519186 -0.12340751 0.9233106 0.010289914
-0.34414002 0.079619244 0.47266394 -0.09492688 1.0197937 1.4238527 -0.36497208 -0.2695482
0.6438487 0.07819452 1.5460647 -0.5039799 -0.5432718 0.48118278 0.34947637 -1.7271982
0.35095614 0.33241016 -0.8905993 -0.39327344 -0.88007915 0.22409369 -1.7410989 -1.1636282
0.19805036 -0.40767762 0.9326136 -0.0052529983 0.50439197 0.72202724 0.63461703 0.6183923
-0.3547087 0.41200396 0.012081365 1.0632205 0.11212856 -0.11016448 0.5988123 -1.2082456
0.66824466 1.1440861 0.71982133 -0.7425415 0.17380399 -0.1387948 0.46035805 0.48174977
0.3949227 -0.015034511 -1.476715 -0.13040796 -0.027070098 0.8252139 2.5860715 -0.38901168
-0.04111638 -0.7833386 -0.71194196 1.8975421 2.627225 1.2979032 -0.38387477 0.5390959
00000000: 9657 4ebf b06f a73f 1b88 e4be fb07 40be
00000010: 5be3 1cbf 5024 a13e c851 f0bf b717 803f
00000020: 593e 293f 61ab e7bf 7e8c 8e3d 20a3 bf3f
00000030: b705 853e 790a 6bbe d7d9 e8be 21aa 03c0
00000040: d657 413f 12a9 7c3e f825 823e 4502 30be
00000050: 3b80 7e3f d224 6abf 032f 9fbd 62de 89bf
00000060: c01a 23bd df82 353f 263e eb3e be8d 80bf
00000070: 04ff d83f 7cfb 5ebf 76f4 7e3e 6076 eabf
00000080: c117 ab3e a8d9 953e 4a74 d43d 31b9 823f
00000090: 9fa1 07bf 690c eebf 0afd c53d 6afb 7fbf
000000a0: ae05 55be 34d8 a93d f369 5f3f 8c56 833f
000000b0: 7f33 4f3f 1c28 3bbe c688 1abe bdc5 a03e
000000c0: c6ba e1bf 7f0a 643f c6ec 533f 8749 a83e
000000d0: 9c70 fabf 5289 0dbf 0ffb 7f3f 51f5 d83e
000000e0: c704 9d3f fde7 f93e baba a2bf 5438 1d3c
000000f0: 3036 823f 33df bc3f 7450 683f 11d6 063e
00000100: aeed c6be 1331 ba3f 8b45 ce3f 2cad 5ebe
00000110: dff3 d03d 7dcc 653b 7138 b2be 3479 343f
00000120: da38 ad3f c2f4 ef3e 5d90 ebbf 194f 7cbe
00000130: d829 2d3f e386 c93e d639 70be c6fb 0f3d
00000140: 6bff 22bf d812 f7bf b0cc debb 8513 e6be
00000150: 1c56 b1bf 5887 453f 3b0e d1bc 5f9c bf3f
00000160: f0b1 8b3f f7a9 0cbe c3b8 b23f f48f b23f
00000170: 1ea0 e6bf 0b53 f8bf a12a 97bf 391b 263f
00000180: 1720 3e3e b983 a2be 6202 0ebf 2b63 24bc
00000190: c639 7f3e 46d0 33bf 43e1 a23d b032 fe3e
000001a0: c2c2 c13d 1730 cebf b392 02be 0924 3f3f
000001b0: a674 ef3e 1ad5 f53f 3ba9 e5bf b033 773f
000001c0: d56c 24bf fbb9 53bf 3e2f 083f a415 8bbf
000001d0: cf96 393f 3713 933f 21f4 ec3e f5a7 bc3f
000001e0: 2832 22c0 b01a d3bf 9860 2cbe c65e d03f
000001f0: 2a2a 24bf 1345 043e f128 e3bc 1ac3 26be
00000200: 7f8b a83f 0668 4dbf 72ab dfbf dcd9 0bbf
00000210: 22d0 b1be 3f95 793f 7d66 0640 890e af3f
00000220: cf5a a2bd dfbf d7be c3fd c23e 6277 023f
00000230: 5be5 a53f d3e1 4abf d7e8 243e de2e fbbf
00000240: 87a0 65bf 8076 e5be 6660 50bf 6c2a 21c0
00000250: 004b 023e c629 adbf c1b1 ad3f de72 273d
00000260: 1e43 463f 172a e0bf 3fc2 033f 1e19 6ebb
00000270: cf61 983f af96 313f 1cba a6bf 4c93 1a3f
00000280: 67e3 253f 9bd5 04c0 6eca 803f 0159 40bf
00000290: 4e30 26bf a8a8 0ac0 80ff c2be 2e64 3c3f
000002a0: 8e72 9b3e d86e 9cbf dd45 c1be a163 05c0
000002b0: 4963 973f 2219 0dbf ff57 0e3e 8d04 313f
000002c0: abd0 10bf b834 9ebf c695 c0bf 03b3 42bf
000002d0: ae85 8b3e afd4 c4be 8315 9d3f ce57 8ebf
000002e0: 9f3d 90be 1807 8b3d a0d5 b63e 8f6f 753f
000002f0: de3e a03f 14bd fcbd 155e 6c3f 0797 283c
00000300: 1f33 b0be 6a0f a33d 0201 f23e 0669 c2bd
00000310: 9a88 823f ce40 b63f 9fdd babe 3902 8abe
00000320: 45d3 243f 7324 a03d 73e5 c53f d404 01bf
00000330: dc13 0bbf 975d f63e 91ee b23e d514 ddbf
00000340: 86b0 b33e aa31 aa3e 51fe 63bf 235b c9be
00000350: de4c 61bf d178 653e 54dc debf c5f1 94bf
00000360: b7cd 4a3e 1fbb d0be c4bf 6e3f 5821 acbb
00000370: d51f 013f c7d6 383f 4376 223f f54e 1e3f
00000380: 619c b5be 2ff2 d23e ebf0 453c 9c17 883f
00000390: a9a3 e53d ea9d e1bd c34b 193f cba7 9abf
000003a0: 1512 2b3f 6a71 923f 3646 383f 3317 3ebf
000003b0: acf9 313e 3920 0ebe 0db4 eb3e e8a7 f63e
000003c0: 4f33 ca3e 4f53 76bc ff04 bdbf aa89 05be
000003d0: 1cc2 ddbc 3841 533f 3282 2540 8a2c c7be
000003e0: a669 28bd e188 48bf d441 36bf a9e2 f23f
000003f0: 7424 2840 b121 a63f 3c8b c4be 3002 0a3f
